aiverify-test-engine/model.pth (torch, 3584 bytes, 4 tensors)

weight f4 [10, 5]
-0.30702063 0.31432506 -0.3694816 0.23933016 0.3616841 0.061187692 -0.41522926 -0.3771277
0.05909866 -0.2722224 -0.33415976 -0.25757682 0.20154804 0.033381265 -0.19586131 -0.41758746
0.2782863 -0.083894186 0.28309265 0.12937029 -0.029498817 0.004792217 -0.43588862 0.35015693
0.35585183 0.054202218 0.25636682 0.2753271 0.30063993 0.44156146 0.11510416 -0.0910985
-0.27503237 -0.00029620156 -0.3368268 0.27003264 -0.12968765 -0.24884443 -0.2507102 0.24227464
0.23689204 -0.33423632 0.08531287 0.34886017 0.25203484 0.14124314 -0.058673818 0.28857315
0.106466435 -0.0077860598
00000000: cf31 9dbe 37ef a03e b12c bdbe f712 753e
00000010: a92e b93e f29f 7a3d ee98 d4be e216 c1be
00000020: 7011 723d bc60 8bbe fd16 abbe 1ce1 83be
00000030: 9c62 4e3e cbba 083d de8f 48be 06ce d5be
00000040: 8b7b 8e3e b7d0 abbd 85f1 903e a579 043e
00000050: 81a7 f1bc 0808 9d3b cb2c dfbe c547 b33e
00000060: 3632 b63e 2503 5e3d 8342 833e acf7 8c3e
00000070: 7aed 993e 5814 e23e bbbb eb3d da91 babd
00000080: 0bd1 8cbe 804b 9bb9 9074 acbe b841 8a3e
00000090: d7cc 04be 13d1 7ebe 165d 80be d816 783e
000000a0: d493 723e 0621 abbe 84b8 ae3d cd9d b23e
000000b0: b60a 813e 0ba2 103e f553 70bd dcbf 933e
000000c0: 130b da3d 3422 ffbb

bias f4 [10]
0.0636345 -0.09572748 -0.36640677 0.058037646 -0.39845538 -0.05739721 0.20402518 0.36985534
0.38354954 0.4248074
00000000: ce52 823d c50c c4bd ab99 bbbe e2b8 6d3d
00000010: 5802 ccbe 5619 6bbd faeb 503e ae5d bd3e
00000020: 9b60 c43e 5b80 d93e

weight f4 [3, 10]
0.26584795 0.13233459 0.24063133 0.1455865 -0.2157093 -0.15220046 0.2385113 0.032589644
0.29204932 0.13718623 -0.04642877 0.087424345 -0.2370512 0.14341134 -0.14615193 0.17533691
-0.121392615 -0.072099 0.20567422 -0.016220426 0.2363822 0.27338102 0.23030137 -0.14052726
0.30071348 -0.231683 -0.16084313 0.29494524 -0.088811 -0.21763963
00000000: 391d 883e b882 073e 0f68 763e a114 153e
00000010: e6e2 5cbe 70da 1bbe 4e3c 743e b87c 053d
00000020: 7d87 953e 8c7a 0c3e 182c 3ebd 890b b33d
00000030: 8dbd 72be 6cda 123e daa8 15be 858b 333e
00000040: b19c f8bd a4a8 93bd 439c 523e b3e0 84bc
00000050: 2d0e 723e 99f8 8b3e 1fd4 6b3e 61e6 0fbe
00000060: 1ef7 993e 4f3e 6dbe 10b4 24be 1003 973e
00000070: 8be2 b5bd ecdc 5ebe

bias f4 [3]
0.15646851 -0.298172 -0.15899482
00000000: 4839 203e 00aa 98be 8acf 22be
