aiverify-test-engine/reconstructed_model.pth (torch, 2480 bytes, 4 tensors)

0.weight f4 [10, 5]
00000000: 4334 c8be 0f06 853d 7132 60bd 5594 e03e
00000010: d089 dfbd a9d2 633e cb99 9c3e 3dfa d0be
00000020: df8a 7a3e 7e01 2d3e cc2a 41be d566 28be
00000030: 7397 cd3d 0ce5 84be a99c 883d 0c80 c83e
00000040: 3746 87be 54bf e0be eb48 61be 5e8a b93e
00000050: 31ae 953e 023b f73c 562c 2b3d cd74 cc3e
00000060: 0a53 973e 27fc a8be 3f8d b13e f7b8 75be
00000070: 7031 623d 985c 953e f170 e0bd 931a a5bd
00000080: 60b8 5cbe 7996 b63e 28f6 2cbe 5e3a 70be
00000090: 8f24 d6bd 4bbc d0be c07c 33be a04d 523e
000000a0: c899 b1be e598 97be 521c f7bd 707f 2e3e
000000b0: c998 b33e f587 87be 0772 b83e a385 c43e
000000c0: 2391 583e 3462 80be
-0.39102373 0.06495296 -0.054735605 0.43863168 -0.109149575 0.22248329 0.30586085 -0.40815917
0.24467038 0.168951 -0.18863982 -0.16445477 0.10038652 -0.25956 0.066705056 0.39160192
-0.26420757 -0.43895972 -0.22000472 0.36238378 0.2923446 0.030179504 0.04179033 0.39932862
0.2955554 -0.33004877 0.34678075 -0.2399634 0.05522293 0.29172206 -0.10959042 -0.08061709
-0.21554708 0.35661677 -0.16890776 -0.23459765 -0.10456192 -0.40768656 -0.17528057 0.20537424
-0.34687638 -0.29608837 -0.120659485 0.17040801 0.35077503 -0.26470914 0.36024496 0.38383207
0.21149115 -0.25074923

0.bias f4 [10]
00000000: da59 a63e dcfd 8fbe ebda 8e3e fbc7 523e
00000010: e7bf 233d 03c9 22be d84f 4fbd 0aa0 b43d
00000020: 5aa7 923e e8d3 a33e
0.32490426 -0.28123367 0.27901396 0.20584099 0.039977934 -0.15896992 -0.050613254 0.088195875
0.28643304 0.3199761

2.weight f4 [3, 10]
00000000: e851 0b3e 5fdf 9dbd 1820 0d3e e9a4 1a3d
00000010: d655 8cbe 6bb1 74be 43b8 243d 5308 bb3d
00000020: 1d85 bbbd dbf0 823d 0816 0d3d 9fd5 5b3e
00000030: e47d 96bd 75f4 183e 1e2b c6bd 66ff 8bbe
00000040: a7e1 15be 65d4 6ebe 5aff f43d 41dd 523e
00000050: 5bf1 913e 8de8 fcbc a73d 123e a885 31be
00000060: 9727 a13e 586d 4c3e c482 15be cf49 8abe
00000070: 70d0 98bd e861 86bd
0.13605464 -0.0770862 0.13781774 0.037754927 -0.27409238 -0.23895805 0.04021479 0.09132447
-0.09156249 0.06393596 0.03444484 0.21468209 -0.073482305 0.14937003 -0.09676193 -0.2734329
-0.14636861 -0.2332321 0.11962767 0.20592214 0.28504452 -0.030872608 0.14281331 -0.17336142
0.31475517 0.19963586 -0.14600664 -0.27009436 -0.07461631 -0.06561643

2.bias f4 [3]
00000000: 0901 02bd 7e51 52bd 25e2 75be
-0.03173927 -0.05134725 -0.24012049
