aiverify-test-engine/simple_tabular_model.pth (torch, 2488 bytes, 4 tensors)

0.weight f4 [10, 5]
000000 5d d4 b4 be 86 b1 ac bc 28 fc d1 be a7 10 c6 be
       -0.3531827 -0.021080744 -0.41012692 -0.3868458
000010 bd a9 d1 3d be 48 55 be 2d 9b a4 bd 86 e1 84 bc
       0.10237453 -0.2082853 -0.0803741 -0.01622082
000020 53 af 84 be 25 14 05 be ab aa 66 3e 8a 67 71 3e
       -0.25915012 -0.12995966 0.22526042 0.23574653
000030 74 4a c3 bc b0 44 4e 3d 23 0f 92 3e 16 09 19 3d
       -0.023839213 0.050358474 0.28527173 0.03736218
000040 b5 78 48 3e 51 d3 a9 be 9f 8f 1f be cf 87 b1 be
       0.19577296 -0.33169034 -0.15582131 -0.34673926
000050 45 9c 9a 3e 8e f9 aa 3e 00 8d bd be c4 71 68 be
       0.3019735 0.3339352 -0.37021637 -0.22699648
000060 20 d6 44 bd 4c 8d 90 be 92 3e b9 be ca b2 a2 bb
       -0.048055768 -0.282328 -0.3618055 -0.004965161
000070 2d e4 6c bc d9 c9 de bd 6e a2 a9 3e 69 db 26 3e
       -0.014458698 -0.10878343 0.33131737 0.16294636
000080 9a 67 1a 3e 7f 2f 6a bd be ac 24 be 73 bb 36 3e
       0.15078583 -0.057174202 -0.16081521 0.17844944
000090 af ae d4 3e 0f 47 07 3e bf d5 f8 bd c0 02 af 3e
       0.41539523 0.132107 -0.12150144 0.34181786
0000a0 da 0b a9 bc bc bd c9 3e 01 55 78 be 04 f6 bf be
       -0.020635534 0.39402568 -0.24251176 -0.37492383
0000b0 c1 ac 6f 3e bf a0 f4 bd eb 07 db bd c5 9d a0 bd
       0.23405744 -0.119447224 -0.106948696 -0.07842592
0000c0 17 16 3c bd 7e 51 b1 3e
       -0.045919504 0.34632486

0.bias f4 [10]
000000 cd 31 a3 be 5a b2 ba 3e 49 c8 41 3c 4b e8 61 be
       -0.31873932 0.36464196 0.011827537 -0.22061269
000010 31 3d 4b be 90 f2 ca 3d 22 37 8d be ce 2e 99 3e
       -0.19847561 0.099095464 -0.27581125 0.29918522
000020 3f 34 a3 3e 70 3c df 3e
       0.31875798 0.43600798

2.weight f4 [3, 10]
000000 6b 35 f4 3d 6f f0 6b be ce 9e 4e 3e e0 f0 83 3e
       0.11924251 -0.23040937 0.20177767 0.2576971
000010 78 04 2b 3d b1 e5 2b 3e a6 7d 66 3d 2f fe 1d be
       0.04175231 0.16786839 0.05627217 -0.15428995
000020 4d 0a 1d be 24 97 28 3e e2 ac 94 be f2 e6 8e bd
       -0.1533596 0.16463906 -0.2903815 -0.06977643
000030 7f a4 59 be 38 dc 20 be 7a d5 d5 bc cb 27 bc 3d
       -0.21254157 -0.15709007 -0.02610277 0.091872774
000040 38 c1 8c be b5 f1 e0 3d db f9 3a be 89 08 47 3e
       -0.27491164 0.10983602 -0.18259375 0.1943685
000050 30 96 97 be 5f 08 5b 3e 74 5c 00 be e9 46 95 3e
       -0.2960677 0.21389912 -0.12535268 0.29155663
000060 b3 f8 12 bd 27 bb 4d 3e 2a 04 9d bd ba e6 88 be
       -0.03588171 0.20090924 -0.0766681 -0.2673853
000070 3f bb 2e bd e4 38 98 be
       -0.04265904 -0.29730904

2.bias f4 [3]
000000 c9 a2 05 bc c1 8c 7d 3c 6e 51 60 be
       -0.008156487 0.015475453 -0.21906063
