aiverify-test-engine/tests/io/user_defined_files/simple_tabular_model.pth (torch, 3832 bytes, 4 tensors)

weight f4 [10, 5]
000000 4e 55 27 be a7 8c ad 3e ec ef dc 3e 2c fe bb be
       -0.16341135 0.33896372 0.43151796 -0.36717355
000010 4c 20 99 be 6d c9 a8 3e 2b 32 90 be 74 45 a6 bd
       -0.29907453 0.32966176 -0.28163275 -0.08118716
000020 21 99 75 3e f0 d2 c2 3d 5c e7 9b be 67 ef 03 be
       0.23984195 0.095128894 -0.3044995 -0.12884293
000030 b2 f9 9e 3e 84 84 e1 3e f4 63 89 3e 3f 5e 35 3e
       0.31049877 0.44046414 0.2683407 0.17711733
000040 31 02 d4 3e 48 9c bb 3e 45 cc 93 3e cc e4 d1 3d
       0.41407922 0.3664267 0.28866783 0.10248718
000050 1d 31 22 be 2c b3 bc bd 41 9b 02 bd f9 92 8d be
       -0.15839048 -0.09213862 -0.031886343 -0.27651194
000060 8f 59 94 be 55 31 b7 3e e6 5a 80 be eb ce c9 be
       -0.28974578 0.35779825 -0.2506935 -0.39415678
000070 86 fe 8b 3e 02 31 4c 3e 82 5e d9 bd 9b c5 4a 3e
       0.27342623 0.1994057 -0.10613729 0.19801943
000080 58 5b 38 bd 84 86 40 3d ef cb dd 3e 98 b6 58 be
       -0.045008987 0.047003284 0.4331965 -0.21163404
000090 74 b7 81 3d 48 bd 97 be 88 05 af 3e 03 af 84 be
       0.06333819 -0.29636598 0.34183908 -0.25914773
0000a0 c6 9a 54 3e 69 61 48 be 98 8a bf bd 1c c2 61 3e
       0.20762166 -0.19568409 -0.093526065 0.22046703
0000b0 8a 68 38 bc af d3 36 3e 25 37 e4 bd 80 fd 02 3e
       -0.011255393 0.17854188 -0.111433305 0.12792015
0000c0 81 dd 5b be 33 03 a3 be
       -0.21471216 -0.31838378

bias f4 [10]
000000 37 a3 d7 be e5 7c 44 3e 19 25 2c 3c 29 9d 42 bc
       -0.4211671 0.19188268 0.010506892 -0.01187829
000010 ea 81 09 bd 3c dc 5b 3d b2 32 e2 3d 0a 8f ce bd
       -0.03357116 0.05367683 0.110448256 -0.10085876
000020 ca c6 c9 bd 21 6d e2 be
       -0.09852369 -0.44223884

weight f4 [3, 10]
000000 8c bc 5f be f3 35 28 be c8 38 61 3e cf c9 ba 3d
       -0.21849269 -0.1642683 0.21994317 0.09120523
000010 da 46 b4 bd cb 4b 2c 3e cf 83 78 3e a4 b7 e3 bd
       -0.08802576 0.16825788 0.24269031 -0.11119011
000020 80 98 d1 bd 94 03 84 bd 34 aa 25 3e 30 64 77 3e
       -0.10234165 -0.06445995 0.16178209 0.24159312
000030 df 8e f7 3d ec 3f 2a 3e 8d 02 bb bd d1 8d 90 3e
       0.120877974 0.16625947 -0.09131346 0.28233197
000040 c9 57 da 3d 99 5c 9b bd 9b e1 54 3e c5 36 9b be
       0.10661275 -0.07586021 0.20789187 -0.30315223
000050 db 04 4a 3e 1f a0 26 be 67 3a 3e be 55 45 9c 3e
       0.19728415 -0.16272019 -0.18576966 0.30521646
000060 8d 2e 8e be d1 e1 92 3e 6c 34 85 bb e0 33 3d be
       -0.2776989 0.2868791 -0.004065087 -0.1847682
000070 f8 f9 49 3e b1 92 7b 3e
       0.19724262 0.24567677

bias f4 [3]
000000 a6 21 21 3e 30 9d 8b 3d 86 8a ad bd
       0.15735492 0.068170905 -0.08473687
