aiverify-test-engine/tests/io/user_defined_files/test_pytorch_serializer.pth (torch, 2704 bytes, 4 tensors)

network.0.weight f4 [10, 5]
0	0x3e19b56a	0.1501061
1	0xbda230a7	-0.07919436
2	0xbd8d7ea7	-0.06908923
3	0x3e757939	0.23972024
4	0x3e939abd	0.28828993
5	0x3eb0d278	0.34535575
6	0xbe930d0e	-0.28720897
7	0xbd9bec7f	-0.076134674
8	0xbeca0ec5	-0.39464393
9	0xbe471b28	-0.19443953
10	0x3e41308a	0.18866172
11	0x3e9a3e31	0.30125573
12	0x3e6ff7ff	0.23434447
13	0xbdb360f4	-0.08758727
14	0xbdb8278d	-0.08991919
15	0x3eb69d53	0.35666904
16	0x3e7605ca	0.24025646
17	0x3eb4f41e	0.35342497
18	0x3e0cfd21	0.13768436
19	0x3cc87a91	0.024472507
20	0x3e3ecb3e	0.18632218
21	0xbe3e3488	-0.18574727
22	0x3eb44132	0.3520599
23	0xbe851991	-0.25996068
24	0x3e41f770	0.18942046
25	0x3e391df7	0.18077837
26	0x3e123289	0.1427709
27	0x3ddb005f	0.1069343
28	0xbda9600a	-0.08270271
29	0x3e7dec6d	0.2479722
30	0x3ddbdb01	0.10735131
31	0xbe52732a	-0.20551744
32	0x3eb1296b	0.34601912
33	0x3e34a858	0.17642343
34	0x3e652e69	0.22380985
35	0x3ec73e4a	0.3891471
36	0xbedfd859	-0.43719748
37	0x3eb1999b	0.34687504
38	0x3e35e42c	0.17762822
39	0xbdd3c045	-0.10339407
40	0x3cd9f37c	0.02660536
41	0xbec0dfde	-0.37670797
42	0x3eaf1311	0.34194234
43	0xbe01fa74	-0.12693197
44	0x3e5057c8	0.20345986
45	0xbd55438e	-0.05206638
46	0x3e2552b7	0.16144834
47	0x3edc1f9a	0.4299286
48	0x3e3cc55f	0.18434666
49	0x3cc0fed1	0.023559006

network.0.bias f4 [10]
0	0xbe47a93e	-0.19498155
1	0xbebba5a5	-0.36649814
2	0xbe8ecd5b	-0.2789105
3	0x3e207c2c	0.15672368
4	0x3def82db	0.116948806
5	0x3c42b752	0.011884527
6	0x3de291c9	0.110629626
7	0x3d8bc674	0.06824961
8	0xbee1741a	-0.4403389
9	0xbd929a06	-0.07158284

network.2.weight f4 [3, 10]
0	0xbb22de00	-0.002485156
1	0xbdcefd84	-0.10106948
2	0x3d462cb2	0.04838247
3	0xbe6934c5	-0.22774036
4	0x3e8cfce7	0.275367
5	0x3dfed134	0.12442246
6	0xbe0f8ebc	-0.14019293
7	0x3d62baa8	0.05535379
8	0x3e5bdf93	0.21472006
9	0x3e197c8b	0.14988916
10	0xbe968d12	-0.29404503
11	0x3caffaea	0.02148195
12	0xbe7d4b97	-0.24735866
13	0x3deed9c3	0.116626285
14	0x3e36c3ef	0.1784818
15	0xbea16660	-0.31523418
16	0x3e5fb349	0.21845736
17	0x3e041692	0.12899235
18	0xbde402e7	-0.11133366
19	0x3e17de89	0.14830984
20	0xbe91c782	-0.28472525
21	0x3e2c66d7	0.16836105
22	0x3e27f768	0.16402972
23	0xbcbf3916	-0.02334265
24	0xbe0d794d	-0.13815804
25	0x3e2ee21b	0.1707844
26	0x3c1add00	0.009452105
27	0x3e269251	0.16266753
28	0xbea0f6c3	-0.31438264
29	0xbe8814c9	-0.26578358

network.2.bias f4 [3]
0	0xbe799183	-0.24371915
1	0xbdbae867	-0.091263585
2	0x3e8753c2	0.2643109
